openshift-ai-manifests/models_onnx_interest-rate_5_model.onnx (onnx, 31718 bytes, 13 tensors)

sequential_12_1/normalization_2_1/Sub/y:0 f4 [1, 5]
00000000: 004d 2d44 42e2 e948 8897 6548 6b1d 4b42
00000010: 80af 6e3d
693.2031 478994.06 235102.12 50.77873 0.05827284

sequential_12_1/dense_50_1/Cast/ReadVariableOp:0 f4 [32, 1]
00000000: 233d ea3e 25dc cfbd 0fa2 003f 3f83 d83d
00000010: cfc2 35be e541 8a3e 6cc1 623e ec7e 18be
00000020: 2259 d83e ee51 5fbe 512b b73d 2a99 c7bc
00000030: f0a3 ce3d 67ac b3bc 5766 c3bd d7e8 cd3e
00000040: 8dc1 61bd b4dc 973d 374c c73e 1a92 b33e
00000050: 8a93 03be e8f3 eebd 6198 86bd 1039 ce3e
00000060: 6967 e8bd e31f 923e 5d4e c83e 0bcf b73e
00000070: 13ea 7b3d e52a 043e 6665 8b3e bd49 4e3e
0.4574977 -0.10149411 0.5024728 0.10571908 -0.17750095 0.270034 0.22144097 -0.14892167
0.42255503 -0.21808597 0.08943809 -0.024365027 0.10089862 -0.021932794 -0.09541004 0.40216705
-0.055116225 0.07415143 0.38925335 0.35072404 -0.1284925 -0.11667615 -0.06572033 0.4027791
-0.11347849 0.28539953 0.39122286 0.3590015 0.061502527 0.12906988 0.27225798 0.20145316

sequential_12_1/dense_49_1/Cast/ReadVariableOp:0 f4 [64, 32]
00000000: 8744 4c3e aa18 78bd 7318 353e f74f 22be
00000010: 75eb 4d3e 7200 9bbe dd7e 883e 6495 f83c
00000020: e886 7c3e 6f41 3dbe 8465 bbbe 45a9 5bbe
00000030: 90fa 883d 0a53 3a3e da8a 453e fbec 573d
00000040: b2bf a3bc 2b1d 8dbe d8a2 a5bd 9747 f23c
00000050: fdbb 12be 6456 7dbc 8aca 033e 255b 10be
00000060: 1b7d 9ebd b233 56be f778 b83d 7de0 4fbd
00000070: 0ff4 0f3e 9ca8 0fbe 5aa3 39be 2a0a aabe
00000080: 07ec 99be 7026 9e3d 389f 70bc 613e 8d3e
00000090: c736 56bb 80d1 fbbd 0d58 713e 8731 443e
000000a0: 172d aabe 798f 563d 94af b2bc 6d5a 93bd
000000b0: f0fb 8bbe 8272 ca3d 7fc7 f1bd daf8 173e
000000c0: 8674 cf3d 4202 ffbd d769 003c 2ebf 073e
000000d0: 5159 a3bd 278e 7fbd 8682 333e 3930 c1bd
000000e0: 5a4f 0b3e 2538 e0bd 79fa 913e 16d4 52bd
000000f0: 45d8 5fbe 9f17 28be 713b 86be 82f3 23be
00000100: 1de5 b23d 25e5 1e3e ceea 533d fc1d 98be
00000110: 6b12 97bc 7fcb aabe 5600 14be 9804 783d
00000120: a0ae 4a3e 4367 f0bd 7747 063d f09a 4a3d
00000130: 4432 1ebe d8d8 353e 3f0d 603e 5334 c9bc
00000140: a642 803d 4a3f 893e c806 45be 10e9 78be
00000150: 0e83 063d e0e1 d7bd 1d03 0e3e 2ac9 a2be
00000160: 7c67 793d b074 3cbe 7e07 883e a343 1ebd
00000170: 87a3 873d 7ae0 c83d a521 83be a285 69be
00000180: 6d54 40be c766 38be e1f0 13bc f80c 793e
00000190: 23c2 03be 78b5 943d 8e5b eebd 24ac fa3d
000001a0: 1a25 80be 2fcb 3cbe 0209 5c3e 04bc 1fbe
000001b0: 5750 a9bd 126d 283e 346e 353e 8e17 ec3d
000001c0: bce0 563e 7282 1ebe 4391 e1bd 13b4 a5be
000001d0: 9dcf 3fbd 0e7d 893e fcdf 4dbc 50f9 60be
000001e0: ba12 f8bd f703 193e 3a53 bf3c c068 873d
000001f0: 78f5 c63d 072d 94be 04ba 74bc 076f d23d
00000200: d8a0 98be 8ffc 843e 0ce6 a5be e5d9 0b3e
00000210: 4bbd 9cbd 11c6 9dbe cf7e 76be b12d 0b3e
00000220: 7975 3f3c 93cc aa3d 0eef 123e 02c3 dabd
00000230: c5dd f8bd c8e3 403c f2e7 a53d 1acd 653e
00000240: bfef 423e a022 f13d 7bc7 8bbe 8a83 aabd
00000250: 7945 21be 8b67 5f3d 79a7 6c3e 7f30 25be
00000260: 97de d53d 6f9b 06be 8eda f2bd 30e1 6d3e
00000270: 7d6f 533e b712 393e 4671 8ebd 2a1a 3dbd
00000280: 2f73 5b3e c1ac 5abc 2946 7bbd 109a d33c
00000290: a1b8 93bd bc9f 3f3e 3361 a13d a959 e6bd
000002a0: baa8 4c3e 28dd 143d 23c7 15be 0816 203d
000002b0: 6c0f f93d c3c8 1c3e 3859 003e 6f79 7cbe
000002c0: d845 793d 17f5 10be 8407 243d 8bbc 16be
000002d0: fb0f 123e 98ee 183e db9a 2ebc 1b94 5dbe
000002e0: 6699 393d de7d b3be 5c33 bf3d 0a22 6ebe
000002f0: fdd2 203e b146 18be a45f 693d 83ee 3b3b
00000300: aeeb 983d 9dfe d03c 2599 ac3d 3c7e 063d
00000310: 4d87 493c e3c8 febd a045 8b3e 778f c1bd
00000320: 81da 7d3d c6f4 40bd 6430 05be 6221 07be
00000330: 66f7 21be 25ce c9bd 3a7b 983d 7118 aa3b
00000340: 3431 173e e6e3 093d 0c27 b93d 102c a63d
00000350: 0cb5 2b3c 4c11 923d 237a 20be 549f 193e
00000360: a8fe 883d 3149 5d3d 25b2 bdbe 55c6 1cbe
00000370: b400 7bbe fa88 e5bd 1b1c ee3c 9cce b3be
00000380: 4e2f 94be 881b f53d eb17 96be a5e6 b13c
00000390: 03ce a73d e7d5 b73d 6670 9e3d 5f59 86bd
000003a0: 8ea4 6abe 9730 58be c86b 8a3e d1c1 44be
000003b0: 226b b43d 4cd2 053e 4edc 05be 07b4 dbbc
000003c0: af9e c13d cc37 023e d091 19be 85d2 f0bc
000003d0: 25fe 073e cbfa 23be 5e94 313d 009f 9cbe
000003e0: 6ea1 723c 7f72 b43b d1af 7fbe 6bf4 82bd
000003f0: 43a9 a63d 2855 403e 469a 693e ffc5 d83d
0.19948016 -0.060570396 0.17685108 -0.15850817 0.20109351 -0.30273777 0.2665929 0.030344673
0.24660838 -0.18481992 -0.36600888 -0.2145129 0.06688416 0.1819574 0.19291249 0.052716237
-0.019988868 -0.27561316 -0.080877006 0.029575152 -0.14329524 -0.015462492 0.12870231 -0.14097269
-0.07738706 -0.20918158 0.09007447 -0.050751198 0.14057945 -0.14029163 -0.1812872 -0.3321088
-0.30062887 0.07722175 -0.014686398 0.27586654 -0.0032686458 -0.12295818 0.23568745 0.19159518
-0.33237526 0.05238292 -0.021812238 -0.07194982 -0.2734065 0.09885122 -0.11805629 0.14841023
0.10129647 -0.124516025 0.007837734 0.13256523 -0.0797602 -0.062391426 0.1753026 -0.09433026
0.13604489 -0.10948209 0.28511408 -0.051471792 -0.21859844 -0.1641526 -0.26217225 -0.1601086
0.08735106 0.15517099 0.0517376 -0.29710376 -0.0184414 -0.3335838 -0.14453253 0.060551256
0.19793177 -0.117384456 0.032782998 0.049464166 -0.15448862 0.177585 0.21880053 -0.024561083
0.06262712 0.26806098 -0.19240868 -0.24307656 0.032839827 -0.10541129 0.13868375 -0.317941
0.060889706 -0.18403888 0.26568216 -0.038638722 0.06622987 0.098084405 -0.25611606 -0.22804883
-0.18782206 -0.18007956 -0.009029598 0.24321353 -0.12867026 0.07261175 -0.116385564 0.122398645
-0.25028306 -0.18436883 0.21487811 -0.15599066 -0.08267277 0.16447857 0.1771782 0.1152793
0.20984167 -0.15479448 -0.110140346 -0.32363948 -0.046828855 0.26853222 -0.012565609 -0.21970105
-0.12112947 0.14942919 0.023355115 0.06611776 0.09714788 -0.28940603 -0.014936928 0.10275083
-0.29810214 0.25973937 -0.32402074 0.13657339 -0.07653292 -0.30815175 -0.24071811 0.13591649
0.0116857225 0.08339801 0.14349005 -0.10681726 -0.12151674 0.011773057 0.08100881 0.22441521
0.19036768 0.11774182 -0.2730063 -0.0832587 -0.15749158 0.054542106 0.23110761 -0.16131781
0.10442846 -0.1314523 -0.11858092 0.23230433 0.20647998 0.18073545 -0.06955199 -0.04616753
0.21430658 -0.013346852 -0.061346207 0.025830299 -0.072129495 0.18713278 0.078798674 -0.1124757
0.19986239 0.036343724 -0.14626746 0.03908351 0.121611446 0.1531096 0.12534034 -0.24655698
0.060857624 -0.14155994 0.04004623 -0.14720361 0.14263909 0.14934766 -0.010657038 -0.21638529
0.045312308 -0.35056967 0.09335968 -0.23255172 0.15705486 -0.14870717 0.056975976 0.00286761
0.07466827 0.025512034 0.084276475 0.03283523 0.012300325 -0.1244066 0.27201557 -0.09451192
0.06197596 -0.047108434 -0.13006741 -0.13196328 -0.15817031 -0.09853772 0.074453786 0.005190902
0.14764863 0.033664607 0.09040651 0.08113873 0.010480177 0.07132205 -0.15671591 0.15002185
0.06689197 0.05402488 -0.37049976 -0.15310033 -0.24511987 -0.11207767 0.029066136 -0.35118568
-0.2894234 0.11968142 -0.29315123 0.021716425 0.081935905 0.089763455 0.07736282 -0.06560015
-0.22914335 -0.21112286 0.27035356 -0.1921456 0.088094965 0.13068503 -0.13072321 -0.026819242
0.094540946 0.12716597 -0.1499703 -0.029397259 0.13280542 -0.16013639 0.043354385 -0.30590057
0.014808996 0.005506813 -0.24969412 -0.06394275 0.08137753 0.18782485 0.22812757 0.1058464

sequential_12_1/dense_49_1/BiasAdd/ReadVariableOp:0 f4 [32]
00000000: 5f2c 013e a5a9 adbd 5222 053e 14ce 463e
00000010: 4b42 a6bd f163 103e 0f37 133e 20ab a4bd
00000020: 50b3 033e b76a a3bd b830 513e 9fc2 9fbd
00000030: fcd7 493e 921c 93bd 754a aabd d714 093e
00000040: 727e a0bd bd7c 383e 8362 113e 2763 0f3e
00000050: bbd2 c5bd cacf adbd b6ab a4bd 3c19 013e
00000060: 6e10 c2bd 59d7 0b3e 9f6c 043e b87a fe3d
00000070: bc53 e93b 27d2 3b3e c170 153e c783 0d3e
0.12614582 -0.08479623 0.13001373 0.1941455 -0.08118113 0.14100625 0.14376472 -0.08040452
0.12861371 -0.079793386 0.20428741 -0.07800793 0.19711298 -0.07183184 -0.08314983 0.13386856
-0.078366175 0.18016334 0.14197735 0.14002667 -0.09659334 -0.08486898 -0.08040564 0.12607282
-0.0947579 0.13656367 0.1293206 0.124257505 0.0071205776 0.18341886 0.14593793 0.138198

sequential_12_1/dense_48_1/Cast/ReadVariableOp:0 f4 [64, 64]
00000000: d3f0 22be 596f f13b cf96 81bd c191 25be
00000010: 3382 203e ee9f 37bd a4f1 00be 42ae 8e3d
00000020: 9ae7 e0bc 467b 28bd 6527 b2bb 9952 d2bd
00000030: 48dd 023e 53a8 1fbd 823b 173e 7d0d 10bd
00000040: acac e5bd c710 c8bd de6a 193e e54f 103e
00000050: 5f3f b23d 74bb c33d 6918 3e3e 18ea bcbd
00000060: 5f90 b3bc 810f 223e 38f0 f7bd 7797 57be
00000070: f579 163e 171a fcba 42e3 93bd 77ed 16be
00000080: 9c80 ca3d a07d 883e d268 9c3d 5f39 a7bd
00000090: d602 1a3d 0c68 e1bd a3c5 1fbe 267f 3bbe
000000a0: 6278 a93c 1b71 3cbd 7868 613e 785a 0e3c
000000b0: f1cb 0b3e 6195 7d3d 43f7 33be fbca 0d3d
000000c0: 7c45 31bd b5a8 b7bc 820a 4fbe fb6e abbd
000000d0: 9760 cdbd f6aa c93c 2da1 7d3d 0770 05be
000000e0: be11 48be 1270 88bd 05c4 9ebc 7e56 adbc
000000f0: 408d fe3d acc0 e23d abb3 30be 7b53 523d
00000100: 33dd c1bd b4d5 16be 79d4 88bd 7292 25be
00000110: 32b7 5cbe ae1f 023a 689e 4f3d 267f 2d3e
00000120: a8fb 2a3e d4e6 60bd 8eba 303d 2340 52ba
00000130: bf25 ff3d 73bd 0bbd 6888 15be 3523 93bd
00000140: 1777 f6bc 6bf8 543e 53b1 38be 673e f3bd
00000150: 7ef0 ba3d a600 27be 0227 f13d 62ae 1a3e
00000160: 7ee9 12be 90af 623e 3d99 063e 5d7c ac3d
00000170: 6c6a bc3c 0c96 1cbd ba57 403e 85c1 e93d
00000180: 485e 28be 0eee 71bd 9979 533e e85d 16be
00000190: bf5a e9bd 944e 843d bc23 e0bd d20b 8c3c
000001a0: 3f06 1d3e 31d4 a8bd 2147 79be 440b dcbd
000001b0: b158 e8bd 8618 113e 42a4 a23c 8e3b 4bbe
000001c0: fe72 d5bd a0a7 453d 4d57 81bd 5b92 23be
000001d0: 8b04 95bc fb41 cf3d 209a d93d ae60 cbba
000001e0: 258c 91bd 1283 80bd 530f 37bd c8c1 8fbc
000001f0: 56da 363c 3ba2 ffbd f604 21bd 49ed 5fbd
00000200: 42e2 10be 145a 073e 1b12 cd3d d6c6 183e
00000210: 0ad9 463e 6d6c 8e3d 3327 723e 03da 04be
00000220: c927 383d 0c94 153e 8bc8 0ebc a855 77be
00000230: f3af f03d 8ce7 4abd f9fb 863d d9b5 0bbe
00000240: f404 c83d dcce 2d3e d0bd fa3d 361c 1b3e
00000250: 3686 5cbd 48ff 1c3e ead9 b03d 336d ed3d
00000260: b353 99bb 7b90 47bd a6ab 91bc cff6 40be
00000270: 9fd3 b53d 9e22 45bc 6c58 e9bd 6a55 ca3d
00000280: 4748 03be 7411 4c3e 55ee 28be f751 46ba
00000290: 8a15 17be 115a 183c 76a2 2ebe 72f9 e83c
000002a0: ceb4 3ebe 3f3f 5fbe 77df e1bd 4958 ca3d
000002b0: c403 36be dd0b 053c ea01 40bc 0268 adbd
000002c0: e152 083c e86e d33d e220 5abe f0aa 253e
000002d0: e30d 963d 790e a2bd 39a9 463e 8b33 313e
000002e0: 5c42 1bbd 292f abbd 0575 c9bd ed27 4f3e
000002f0: 8def b43b 2921 2bbe 871c f3bd a84b 923d
00000300: 8c74 203c 887c 10be da68 ff3d 11d4 d1bd
00000310: 0b5e 67be ea37 92bd 0743 ca3d 7070 063e
00000320: f101 293e 659e 6dbb 5442 2cbd 7d6b 423e
00000330: fcae bd3c 0fa0 1b3e bab9 d4bd e0d0 10bc
00000340: f471 9b3d 6c6d 8fbd 6cc7 243d ae0c 69be
00000350: fa38 6dbe a940 2abd 5ebc 623e 2f9d 0b3e
00000360: eab5 663d 4536 2f3e 6c7e babc 7130 ebbc
00000370: dde9 25be 5bc3 ad3d 3d3f 3bbd 77a4 b23a
00000380: 3742 4dbe 7f1f 0c3d 0bbb bebd 2bb0 1f3d
00000390: db97 363e 1c00 4a3d eaee ab3d 5421 183e
000003a0: 44f3 453e 79a5 99bd a671 79be 98eb d63d
000003b0: 48e3 0e3e 2f7a 223e e3eb 9b3d 6947 3f3c
000003c0: adb5 ac3d 229b 9dbc 7323 083e ab41 363e
000003d0: 0e2d 033e 65fb a73b 195a 9cbd bbe9 703d
000003e0: 3fa9 8dbd 1fb2 403e e131 003e 9d8f 82be
000003f0: 13be 4c3e 8b8d a93b 0019 633d 91b9 98bd
-0.1591218 0.00736801 -0.063275926 -0.16168882 0.15674667 -0.044830255 -0.12592179 0.06966831
-0.027454186 -0.041133188 -0.005436825 -0.102696605 0.12779725 -0.038978886 0.14768794 -0.035169113
-0.11214575 -0.09768825 0.14982173 0.14092977 0.08703493 0.09557238 0.18563999 -0.09224337
-0.021919427 0.15826227 -0.12106365 -0.21053873 0.1469496 -0.001923385 -0.0722108 -0.14739023
0.098878115 0.26658344 0.076371804 -0.081652395 0.03760036 -0.110061735 -0.15602736 -0.18310222
0.020687286 -0.046006303 0.22012508 0.008688562 0.13652016 0.061910037 -0.17574792 0.034617405
-0.043279156 -0.022419313 -0.20218852 -0.08370777 -0.10028189 0.024617653 0.061921287 -0.13031016
-0.19538018 -0.06662001 -0.019380579 -0.021159407 0.12429285 0.110719055 -0.17256038 0.051349144
-0.094660185 -0.14729959 -0.06681151 -0.16169146 -0.21554258 0.0004963827 0.050688177 0.16943035
0.16697562 -0.054907635 0.043146662 -0.00080204214 0.12458371 -0.03411622 -0.14602816 -0.071844496
-0.030086083 0.20797889 -0.18036394 -0.11877137 0.091279015 -0.16308841 0.11775018 0.15105584
-0.14346883 0.22137284 0.13144393 0.08422158 0.022999965 -0.038229033 0.18783465 0.11413864
-0.16442215 -0.059064917 0.20651855 -0.1468426 -0.113942616 0.064603 -0.10944316 0.01709548
0.15334414 -0.08243597 -0.2434354 -0.10744336 -0.113450415 0.14169511 0.019853715 -0.19846937
-0.10422324 0.048255563 -0.063154794 -0.15973799 -0.018190643 0.10120007 0.106251 -0.0015516484
-0.071068086 -0.06275 -0.04469235 -0.017548457 0.011160454 -0.12482115 -0.03931137 -0.054669652
-0.1414881 0.13217956 0.10013219 0.149196 0.19418731 0.06954274 0.23647766 -0.1297379
0.044959817 0.14607257 -0.008714805 -0.24153769 0.1175231 -0.049537227 0.06591029 -0.13643588
0.0976657 0.16973442 0.12243235 0.1514748 -0.05383893 0.15331757 0.08635314 0.11593094
-0.004679167 -0.04872177 -0.017782044 -0.1884415 0.08878254 -0.012032179 -0.11393818 0.09879573
-0.1282054 0.19928533 -0.16497166 -0.00075653143 -0.1475431 0.009298817 -0.17054161 0.028439257
-0.18623659 -0.2180147 -0.11028951 0.0988012 -0.17774874 0.008120504 -0.011719206 -0.084671035
0.008320541 0.10323888 -0.21301606 0.16178489 0.073268674 -0.07912917 0.19400491 0.17304818
-0.037905082 -0.083586045 -0.09836773 0.20230074 0.0055217207 -0.16711868 -0.118706755 0.071433365
0.009793412 -0.14110005 0.12471171 -0.102455266 -0.22594468 -0.07139571 0.09876066 0.13128829
0.16504647 -0.003625774 -0.042055443 0.18986316 0.023154728 0.15197776 -0.10386987 -0.008838862
0.07590094 -0.070032924 0.040229246 -0.22758743 -0.23166266 -0.04156557 0.22142169 0.1363418
0.05632583 0.17110546 -0.02276536 -0.028709622 -0.16202493 0.08484527 -0.045714606 0.0013629337
-0.2004479 0.034209725 -0.09313019 0.038986366 0.17831366 0.04931651 0.083951786 0.14856464
0.1933108 -0.075022645 -0.2435976 0.10494155 0.13953888 0.15866922 0.07613351 0.01167474
0.084330894 -0.019239012 0.13294773 0.17798488 0.12810156 0.005126404 -0.07634372 0.058816653
-0.06917047 0.18817948 0.12519027 -0.25500193 0.19994383 0.005174344 0.055443764 -0.07457269

sequential_12_1/dense_48_1/BiasAdd/ReadVariableOp:0 f4 [64]
00000000: a4b5 be3d 1446 c6bc 36ec 203c 7ffa 9a3d
00000010: d500 123c ca72 db3c 00dc da3d 2f9a d4ba
00000020: 2b33 d53c c338 ac3d 6921 173d be46 b13d
00000030: 69bf 853d 27d2 ae3d 7537 77bd 9a62 7cbd
00000040: 56ff 623c 4370 05bd 0c6c 0c3d c575 b73c
00000050: 66ec 073d 08bd 133a d250 493d cd8b 9c3d
00000060: bab3 6c3d 3be4 eabc 7922 e7bd 0c17 02be
00000070: 2d90 33bc 6b37 f7bc 41a0 8e3d 1b83 e3bd
00000080: 22d0 053e 2c9b 8f3d b793 cc3d 558e ddbc
00000090: ee6b 5b3c 1cd3 b53d d15b 4f3d ef33 443c
000000a0: d608 ac3b 2626 013e 3cce b43d 191f cb3c
000000b0: ec10 053d 4d0f cebd c9d9 253d c673 073e
000000c0: 1c13 bd3c 86b7 b33d 8f3f 683d 150f 8c3d
000000d0: 7045 e9bd 9b42 c33c 5e1f 97bb 84d1 8f3d
000000e0: ff83 26bd 99ff adbc 9b72 183c 57c7 6e3d
000000f0: a985 3d3d 4d00 f23d 607c 0e3d 2797 4d3d
0.09311989 -0.024203338 0.009821942 0.075673096 0.008911331 0.026788134 0.10686493 -0.0016220267
0.026025375 0.08409264 0.036897097 0.08656071 0.06530649 0.08536177 -0.060355622 -0.06161747
0.013854822 -0.032577764 0.03428273 0.022395024 0.03318443 0.0005635773 0.049149342 0.076438524
0.057788588 -0.028673282 -0.11285872 -0.12704104 -0.010959667 -0.030177793 0.0696416 -0.11108991
0.13067678 0.070120186 0.09989112 -0.027045408 0.013392432 0.088781565 0.050624672 0.011975273
0.0052500768 0.12612209 0.088283986 0.024795102 0.03248684 -0.10061512 0.0404909 0.13227758
0.023080401 0.08775239 0.05670124 0.06838814 -0.11390197 0.02383547 -0.0046118936 0.07022384
-0.040653225 -0.021240043 0.009304668 0.058295574 0.046270046 0.118164636 0.034786582 0.05019298

sequential_12_1/dense_47_1/Cast/ReadVariableOp:0 f4 [5, 64]
00000000: 1d90 1f3c 149a 983d 4eae 98be 5594 9cbc
00000010: 0ac1 03be 4ad2 3a3d abaa 6bbd b22e 513e
00000020: fd4f 6cbe e6ae f9bd f127 4c3e a624 0d3e
00000030: b9fe 6c3d fca9 613e e91d 673d 43e8 ab3c
00000040: a505 843c 4f37 7f3d 39d2 55be 9897 16be
00000050: ac97 d23d a8f4 893e de54 8cbd beb8 4cbe
00000060: 4c94 2dbe 399c 3bbb a1c4 123e a09a daba
00000070: fb42 cbbc 827c 033e 17f9 0d3e cb20 8d3c
00000080: 5905 3dbd 1826 25be 1380 203e 8a16 d9bd
00000090: 49ff d53d dd59 48be 84eb 22bd b87e c73d
000000a0: 2897 fe3d 56d8 f5bd e7d0 d0bd b80f 743e
000000b0: 07a0 433e 24a2 503e 0ee9 293d f4c2 d53d
000000c0: f248 ff3c bdca 60bc ed6e 4cbe eccf 8cbe
000000d0: ca98 3e3d 4330 3cbe 9557 9dbd 8fe6 dfbd
000000e0: cf1c a7bd 030e 823d 809e 3f3d d3cf 163e
000000f0: e8a2 14be ae74 53be 78c9 003d 0c68 c0bd
00000100: 091a d4bd d2a4 a93c c2f1 0bbe 7b0a 0cbe
00000110: 46c5 4d3e dbc0 f2bc 7fde 01be 8af7 5d3e
00000120: f300 003e 1a9f 6d3e 5407 333e db47 103e
00000130: 9070 d9bd 36dd 94be ec43 73be a6bb 593d
00000140: 45a7 40be 390e 923e 83f0 263e afeb 93bd
00000150: ec97 64bd 9c69 203e 81c6 05be 352b 1ebe
00000160: 043a 663e 236e 4d3d 4f0d a3be f700 85be
00000170: ec56 9cbe e57b 2abe 2a87 9bbd b47b d43d
00000180: 61d0 90be 9e1e fa3c dfa4 933d 02f2 7d3d
00000190: 0e85 ba3d b47e 103d 3877 f73d cf25 8dbe
000001a0: 58ae 52be 7f6e 093e 6c36 86bd 78b4 56bd
000001b0: d832 5f3c 6b94 3c3d 61f6 37bd becc b9be
000001c0: 649e a4be 8f86 7e3e b81c 77be f431 513e
000001d0: e223 38be 3831 0d3e d7ab be3e ee97 d13d
000001e0: eba0 a6be 2123 b1be 4e45 543e 87dd 173e
000001f0: a9f9 b3be 41ac de3d 4728 80bc 9c47 c43d
00000200: 69cd b43d e1d1 d8be b8b7 893e 8c39 8dbd
00000210: ef10 91be 72ee 67be 2f34 52be 1dfa 6c3d
00000220: c16c 03be 8767 dd3d d1b8 55bc 4bd6 3a3e
00000230: 1f94 8b3e 25dd 85be 06bd c3bd e914 8bbe
00000240: 07f1 3dbe 34c9 223e 7306 20bd d307 0abd
00000250: c786 af3e 4d2f 98be 7178 923e 3eb2 5abd
00000260: becc 82be c3ae d73c e9f3 073e b001 9d3d
00000270: 2e63 833e 4fbe 58be f6a4 dabd 5d88 513e
00000280: 570e 6bbe 5365 7c3e e1b9 92be 7537 023e
00000290: bfa1 a43e f21a a83e 06ad 85bc a6ed ab3d
000002a0: ef45 40be 3250 bcbd c80e 883e fe8d 2bbe
000002b0: 1db3 7a3e d429 823e d266 9cbe 350b 353e
000002c0: b30d c4bd c963 babd 4bee 163e c062 2bbc
000002d0: 15fa ae3e 6bdb 253e 1bf4 323e baf8 053d
000002e0: 18c7 1abd 4fcb 683d 6933 a43e 304c 603e
000002f0: 7c57 5d3e 71c6 35be 8bd5 bbbe 71e5 533b
00000300: 9e71 793e 37c9 fabc f4d2 043e 058a 4fbe
00000310: 1e35 8cbe 2c67 49be dada d43c 0ef7 613e
00000320: 6967 67be add2 bf3d 67ff 893e 4cba 3cbd
00000330: 3e62 7cbe 4124 093e fe03 edbd 1dd9 263d
00000340: 39bb 57be 451f aabd 8a66 8cbc 7e7d acbd
00000350: b09b 493e 4732 bdbe 5b8a 843d 9a9d 28bd
00000360: 3750 693e 51de 4b3c b3f6 0f3e 7815 0d3b
00000370: 1777 2ebe 72af 9c3d 0cd0 39be 8d9e c73b
00000380: da8a 15be 24ab 393e 7660 88be 4b2e 113d
00000390: f866 853d cfa1 2fbe 2867 4dbe da20 453e
000003a0: ac8d 9b3d 2a0a 343e 56de cfbc 6ced 2a3e
000003b0: 476f 2b3e 3b12 443e 8884 6f3e 43f9 fa3d
000003c0: 0f74 17bd c117 9d3c b82e 5e3e af2e 90be
000003d0: 1a28 203e a64c 2d3e 3a31 5c3e c5e1 29be
000003e0: d1ec cf3d d00a 373d 8095 743d daa2 6a3e
000003f0: 727d 443d 45cf 9dbe 64c8 563d 2d4f 88be
0.009738949 0.07451263 -0.29820484 -0.019113699 -0.12866607 0.045610704 -0.05753581 0.20427969
-0.23077388 -0.12191562 0.19937111 0.13783512 0.05786011 0.220375 0.05642501 0.020984774
0.016115973 0.062308606 -0.20880975 -0.14706266 0.10282835 0.2694447 -0.06852125 -0.19992349
-0.16951102 -0.0028627052 0.1433282 -0.0016678162 -0.024812212 0.12840465 0.13864551 0.017227551
-0.046147678 -0.16127813 0.15673856 -0.10600002 0.104490824 -0.1956553 -0.039775386 0.097409666
0.124311745 -0.120041534 -0.10196095 0.23834121 0.19104014 0.20374352 0.041482024 0.10437575
0.031162713 -0.013720212 -0.1996419 -0.27502382 0.04653243 -0.18377785 -0.076827206 -0.109326474
-0.08159792 0.06350329 0.046782017 0.14727716 -0.14515269 -0.20649979 0.031442136 -0.09394845
-0.10356528 0.020708475 -0.13666442 -0.13675873 0.20094785 -0.029632976 -0.12682532 0.2167646
0.12500362 0.23205224 0.17483264 0.1408991 -0.10617173 -0.2907502 -0.23756379 0.05315747
-0.18813808 0.28526476 0.16302685 -0.072226875 -0.055808946 0.15665287 -0.13064004 -0.1544617
0.22483069 0.050153863 -0.3184609 -0.259773 -0.30535066 -0.16648825 -0.0759414 0.10375157
-0.2828398 0.030532178 0.07209181 0.061998375 0.091074094 0.035277084 0.12083286 -0.27567908
-0.2057432 0.13421057 -0.06553349 -0.052418202 0.013622962 0.04603998 -0.0449127 -0.36289018
-0.32152092 0.24856018 -0.24132049 0.20429212 -0.17982438 0.13788307 0.37240478 0.102340564
-0.32544646 -0.34597114 0.20729563 0.148306 -0.35151413 0.108726986 -0.015644206 0.09583971
0.088282414 -0.42347625 0.2689798 -0.06895742 -0.28333232 -0.22649553 -0.20527719 0.057855714
-0.12834455 0.10810762 -0.013044552 0.18245809 0.27261445 -0.26145282 -0.09557538 -0.2716439
-0.18548976 0.15897065 -0.03906865 -0.033698868 0.34282514 -0.29723588 0.28607515 -0.05339264
-0.2554683 0.02632845 0.13276638 0.076663375 0.25661606 -0.21166347 -0.10675995 0.20462175
-0.22954689 0.24648027 -0.2865744 0.12716468 0.32154652 0.32833058 -0.016317856 0.08394937
-0.18776678 -0.091949835 0.26573777 -0.16753384 0.24482389 0.25422537 -0.30547196 0.17680056
-0.095729254 -0.09101064 0.14739339 -0.010460556 0.34175172 0.16196983 0.17475931 0.032707907
-0.037787527 0.056834515 0.32070473 0.21904063 0.21615404 -0.1775148 -0.36686358 0.0032332803
0.24359748 -0.030613525 0.12971097 -0.20267494 -0.27384275 -0.19668263 0.025983263 0.220669
-0.22598042 0.09366355 0.2695267 -0.046076104 -0.24646851 0.13392736 -0.11573027 0.0407344
-0.21067514 -0.083067454 -0.017138738 -0.08422373 0.19688296 -0.3695242 0.06471702 -0.041165926
0.22784506 0.012443141 0.14058952 0.002152769 -0.17037617 0.07650651 -0.1814577 0.006091899
-0.14603749 0.18131691 -0.26636094 0.03544454 0.0651378 -0.17151569 -0.20058882 0.19250813
0.07595381 0.17582002 -0.025374573 0.16692132 0.16741668 0.1914758 0.233904 0.12254574
-0.036975916 0.019176366 0.2169751 -0.28160617 0.15640298 0.1692377 0.21503153 -0.1659003
0.10152591 0.044688046 0.059712887 0.22913685 0.047971196 -0.30822197 0.0524372 -0.26622906

sequential_12_1/dense_47_1/BiasAdd/ReadVariableOp:0 f4 [64]
00000000: b0ef d43b 2de0 a5bd 451b ba3c c3f7 ae3c
00000010: 517d 873c 35e7 963c 52d3 013d 4bd8 c0bc
00000020: e21c 493d 1823 583d 1771 5b3d 177e 99bc
00000030: 3678 093d 5351 8b3d c868 a33c f0d3 b8bc
00000040: ee54 eebb f245 843d 89dd a33c 6e3a 07bd
00000050: ddb1 453d 046b 093d ab95 f53d 609e 7b3d
00000060: 54d9 f33d f055 3b3c 2730 00bd 5a80 c1bd
00000070: bfbd 213c 2159 203c a25d 38ba 62a4 383d
00000080: f8a7 883d f3e6 493d bd7a 93bc 416f 18bd
00000090: 4a4c 523d 2c47 06bc 0720 84bd 3bbb a73b
000000a0: fe8b bb3c e271 cf3c 5526 1ebd fe4d f1bb
000000b0: 5c2a 303d b8b5 4dbc 698f 3dbd c568 9aba
000000c0: c3e1 85bc 60fe 0c3e bf9a c2bc a784 083d
000000d0: 9a06 02bd 3a87 743c 95d5 553d 31f1 2bbb
000000e0: e5ef 8d3d 5acc 98bb 5682 f73c 9126 9d3c
000000f0: d320 ac3d 6a59 223d d551 d8bd 9f5d 283d
0.0064982995 -0.08099399 0.022718081 0.021358376 0.016539248 0.018420795 0.03169567 -0.023540637
0.04909981 0.052767843 0.053574648 -0.018736882 0.033561908 0.06802621 0.019947425 -0.022561997
-0.007273308 0.064586535 0.020003097 -0.033014707 0.048265327 0.033549324 0.119914375 0.061430335
0.119066864 0.011434063 -0.03129592 -0.09448309 0.009871899 0.009786875 -0.00070329953 0.045078643
0.066726625 0.049292516 -0.018002862 -0.037215475 0.051342286 -0.00819568 -0.06451421 0.005118755
0.022893902 0.025322858 -0.038610775 -0.0073640337 0.043009147 -0.012555532 -0.046279345 -0.0011780491
-0.016343003 0.13768911 -0.02375543 0.033329632 -0.031744577 0.014924819 0.05220564 -0.002623629
0.06930522 -0.0046630325 0.030213516 0.019183429 0.08404698 0.039636053 -0.10562483 0.04110491

sequential_12_1/batch_normalization_23_1/batchnorm/sub:0 f4 [64]
00000000: d03b 74bf c450 54bf b768 87bf 4a07 3fbf
00000010: 94bf 45bf 0ec4 86bf 9610 68bf 3d14 5bbf
00000020: 2a03 7ebf 5bb2 13bf e78f 4fbf 23ef 22bf
00000030: de2c 85bf ed17 72bf 9acc 41bf 5740 3dbf
00000040: fb82 51bf eec9 72bf 1adc 5ebf 5a67 4abf
00000050: d2ae 5abf 8087 0abf e2b7 35bf 22c9 26bf
00000060: 48c4 23bf 8b52 3ebf 8a9b 80bf a7c0 8cbf
00000070: b743 78bf df15 54bf b6fb 57bf 2e70 70bf
00000080: f92d 38bf df26 0abf 4ecb 2cbf d301 57bf
00000090: 5354 83bf a381 73bf 7f80 84bf f2c2 1ebf
000000a0: 26c4 60bf f66d 41bf 4cf9 21bf 6081 74bf
000000b0: 9bac 54bf 634b 8abf 5bd1 2dbf ab10 67bf
000000c0: 19f9 87bf 3023 54bf d4cd 82bf ec53 04bf
000000d0: f0b3 8fbf 3a6c 1bbf 7eef 51bf 11f1 1fbf
000000e0: d65e 86bf d0c3 76bf 0c28 5bbf 0e7e 15bf
000000f0: adb4 65bf 9113 88bf 5e00 93bf 1c09 38bf
-0.95403767 -0.8293574 -1.0578831 -0.746205 -0.7724545 -1.0528581 -0.9065031 -0.85577756
-0.9922358 -0.57694024 -0.8107895 -0.63646144 -1.0404317 -0.9456776 -0.7570282 -0.739263
-0.81840485 -0.9483937 -0.870546 -0.7906395 -0.85423005 -0.54113007 -0.7098371 -0.65150654
-0.63971376 -0.743447 -1.0047467 -1.0996293 -0.96978325 -0.8284587 -0.84368455 -0.9392117
-0.7194515 -0.5396556 -0.6749772 -0.8398716 -1.0260109 -0.95119685 -1.0351714 -0.6201621
-0.877993 -0.7555841 -0.6327102 -0.9550991 -0.83075875 -1.0804256 -0.67897576 -0.9025981
-1.0622894 -0.8286619 -1.0219064 -0.51690555 -1.1226788 -0.60712016 -0.8200606 -0.62477213
-1.0497692 -0.96392536 -0.8560798 -0.5839547 -0.89728814 -1.0630971 -1.1484487 -0.718889

sequential_12_1/batch_normalization_23_1/batchnorm/mul:0 f4 [64]
00000000: ef7e bc3f 3e36 533f b5f0 9a3f ec44 203f
00000010: 021a 853f 4ac5 d43f 8cc6 8e3f 109c 6a3f
00000020: 5fd6 793f 4067 473f c20e 4b3f 3106 963f
00000030: 84dd 763f 6a4b 843f 0a02 c13f 6af9 543f
00000040: 98e9 703f 527b c83f 53b4 8a3f 9072 353f
00000050: 8df4 8c3f 1d35 ba3f 7953 8b3f 7ba0 ae3f
00000060: 5b7e 933f 1960 8a3f af45 a13f 57fa c23f
00000070: 4b66 893f 16b4 7f3f 792d a03f 527b 8f3f
00000080: 9e8a 4c3f cbba ab3f a2f0 c63f 9171 853f
00000090: f1fa 833f 3b4b a93f 5da5 993f e6f9 0840
000000a0: 2116 b23f df4d b63f e5fa 6d3f a3c2 a83f
000000b0: 7882 473f dffa a33f 85fe b93f 395f 8a3f
000000c0: 8480 953f e00a 7f3f b13f 853f 84b7 883f
000000d0: 8556 843f a0ee a83f e375 653f 6b90 a03f
000000e0: 18b3 9a3f 12cd c83f 5242 223f a687 b63f
000000f0: b4a6 903f 6f2a a73f dbdd 803f d151 9d3f
1.4726237 0.8250464 1.2104708 0.62605166 1.0398562 1.6622708 1.1154342 0.9164438
0.9759273 0.7789192 0.79319394 1.172064 0.96431756 1.0335515 1.5078747 0.83193076
0.94106436 1.5662634 1.083628 0.70877934 1.1012131 1.4547459 1.0884849 1.3642725
1.1522936 1.0810577 1.2599391 1.5232648 1.0734342 0.99884164 1.2513877 1.1209509
0.79899013 1.341638 1.5542185 1.0425283 1.0310956 1.3226084 1.200359 2.1402526
1.3913003 1.4242514 0.9296096 1.3184398 0.77933455 1.2810935 1.4530798 1.081031
1.1679845 0.9962597 1.0410062 1.0681005 1.0338904 1.3197823 0.89633006 1.2544073
1.2085905 1.5687582 0.63382447 1.4260147 1.1300874 1.3059825 1.0067705 1.2290593

sequential_12_1/batch_normalization_22_1/batchnorm/sub:0 f4 [64]
00000000: be51 f3be 0d0e 92bf 0c86 39bf cf4d 71bf
00000010: 0fe2 48bf ba58 85bf b8f9 69bf cc99 29bf
00000020: 5fa8 41bf 2a37 2ebf 2ea4 33bf 478e 1bbf
00000030: 6cd8 2dbf 0fe4 76bf eed2 93bf dc18 91bf
00000040: 2481 6fbf 659a 1bbf dad9 45bf 5d7a 25bf
00000050: 4b24 13bf d884 5cbf bc53 19bf f283 30bf
00000060: ce0b 1bbf 3178 06bf 2d25 27bf 39ca f7be
00000070: 7ce4 52bf 8c04 82bf 267f 5ebf e105 27bf
00000080: e910 94bf 7aba 12bf 6564 4ebf b979 04bf
00000090: a3fe 1dbf 3157 04bf 3a1b 08bf 5a8d 10bf
000000a0: cd6b 6ebf cc66 2cbf 9841 0cbf 5276 26bf
000000b0: f6fa 1fbf ac59 24bf 9436 2ebf 883b 0ebf
000000c0: 0cef a2bf 6db0 5cbf 0926 19bf 3c48 39bf
000000d0: 03cb 08bf b946 33bf bcab 2dbf 3ff2 0ebf
000000e0: 9e2b 85bf a305 7cbf 846d 1fbf 592f 21bf
000000f0: 23be 63bf 788c 5abf 9c4c 96bf 6155 50bf
-0.47523302 -1.1410538 -0.72470164 -0.9425935 -0.7846994 -1.0417702 -0.91396666 -0.662503
-0.7564754 -0.68052924 -0.70172393 -0.60763973 -0.6790836 -0.9644174 -1.1548746 -1.1335711
-0.9355643 -0.6078246 -0.7728554 -0.64639837 -0.57477254 -0.86140203 -0.59893394 -0.6895133
-0.6056489 -0.5252715 -0.652911 -0.4839647 -0.8237989 -1.0157638 -0.86912763 -0.65243345
-1.156766 -0.5731579 -0.8062194 -0.51748234 -0.6171667 -0.51695544 -0.53166544 -0.56465685
-0.9313324 -0.67344356 -0.5478759 -0.6502429 -0.6249231 -0.6419933 -0.6805203 -0.5555959
-1.2729201 -0.86206704 -0.5982366 -0.72375846 -0.5343477 -0.7002979 -0.6784017 -0.5583839
-1.0403936 -0.984461 -0.6227648 -0.6296287 -0.88962 -0.8537059 -1.1742129 -0.8138028

sequential_12_1/batch_normalization_22_1/batchnorm/mul:0 f4 [64]
00000000: 8ab4 9540 77a2 e340 e2b9 8140 138e c040
00000010: 2ec6 6c40 0a7f ba40 4cb8 9c40 d6da 5640
00000020: 0cea 6b40 ba2a 6f40 7ecd 4d40 5395 8d40
00000030: d416 a340 26c4 8040 9556 c940 4669 4141
00000040: 73fc 8540 9f2f 6240 c69d cf40 b45c ee40
00000050: 4c09 2e40 ac5d 4640 2877 8740 2be1 8740
00000060: 4007 5e40 a6bc 6541 ce97 c040 4355 bc41
00000070: 6712 c040 0732 ce40 3271 c940 25ef 9240
00000080: ef18 7040 baa7 4a40 6f5f 6f40 5af1 c540
00000090: f930 3a40 e5ce 8040 8519 3741 d793 c140
000000a0: a3c8 bb40 572c c440 ead4 b840 a1df a840
000000b0: d946 5040 0561 4240 06b5 e340 378b a240
000000c0: 2fce e840 a57a ad40 f2b6 a540 7d10 6140
000000d0: ea68 8040 608b 6440 9032 0f40 14ce 0541
000000e0: 10ba be40 be40 0641 09aa 3240 2403 3540
000000f0: 0fe1 9a40 5b2c 8740 fd11 3241 f222 a340
4.6782885 7.113582 4.053941 6.017343 3.699596 5.8280077 4.897497 3.3571067
3.68616 3.7369828 3.2156672 4.424478 5.0965366 4.023944 6.291819 12.0882015
4.1870666 3.5341566 6.4880095 7.4488163 2.7193174 3.0994673 4.2332954 4.2462363
3.4691925 14.358557 6.018531 23.541632 6.0022464 6.443607 6.295068 4.5916924
3.7515218 3.1664872 3.7401998 6.185712 2.909239 4.0252557 11.44373 6.049297
5.868242 6.1304126 5.7759905 5.2772985 3.2543242 3.0371716 7.1158476 5.079494
7.275169 5.4212213 5.178582 3.5166314 4.012807 3.5710068 2.237461 8.362812
5.9602127 8.390806 2.7916281 2.8283167 4.839973 4.2241645 11.129392 5.098016

ConstantFolding/sequential_12_1/normalization_2_1/truediv_recip:0 f4 [1, 5]
00000000: e2aa 8a3c 3fcc ee35 e2c2 6536 9a25 0d3d
00000010: d58a 4a41
0.016927186 1.7791825e-06 3.4237096e-06 0.034459688 12.658895
